Wed Mar 15 22:38:12 EDT 2017
a1e5e79bbd2f84b5453b99b3738207e77c84f2f4
Loading saved gensim model from GoogleNews-vectors-negative300_top5000.model
Loading epoch 19 from models_cnn_lstm_no_train_embed_v00/word2vec_cnn_lstm_19.hdf5
Model summary
_________________________________________________________________
Layer (type)                 Output Shape              Param #   
=================================================================
embedding_1 (Embedding)      (None, 500, 300)          1500000   
_________________________________________________________________
conv1d_1 (Conv1D)            (None, 500, 32)           28832     
_________________________________________________________________
max_pooling1d_1 (MaxPooling1 (None, 250, 32)           0         
_________________________________________________________________
lstm_1 (LSTM)                (None, 100)               53200     
_________________________________________________________________
dense_1 (Dense)              (None, 14)                1414      
=================================================================
Total params: 1,583,446.0
Trainable params: 83,446.0
Non-trainable params: 1,500,000.0
_________________________________________________________________
None
2017-03-15 22:38:17.434422: Starting testing on 1000 samples
Evaluation time on 1000 samples: 0:00:07.096447
Loss: 0.2019. Accuracy: 93.40% (Chance: 7.14%)
Seconds per sample: 7.10e-03 sec
Wed Mar 15 22:42:19 EDT 2017
a33b567c8b0c550057611a21b681e5a88daeafb5
Loading saved gensim model from GoogleNews-vectors-negative300_top5000.model
Building new model
Model summary
_________________________________________________________________
Layer (type)                 Output Shape              Param #   
=================================================================
embedding_1 (Embedding)      (None, 500, 300)          1500000   
_________________________________________________________________
conv1d_1 (Conv1D)            (None, 500, 32)           28832     
_________________________________________________________________
max_pooling1d_1 (MaxPooling1 (None, 250, 32)           0         
_________________________________________________________________
lstm_1 (LSTM)                (None, 100)               53200     
_________________________________________________________________
dense_1 (Dense)              (None, 14)                1414      
=================================================================
Total params: 1,583,446.0
Trainable params: 1,583,446.0
Non-trainable params: 0.0
_________________________________________________________________
None
2017-03-15 22:42:23.122588: Starting training at epoch 0/20
Epoch 1/20
  1/100 [..............................] - ETA: 272s - loss: 2.6387 - categorical_accuracy: 0.1300 - c
…
