Tue Mar 14 23:49:25 EDT 2017
dfb43e443907bc115b6f7d71c46c4a4d3088d834
Building new model
Model summary
_________________________________________________________________
Layer (type)                 Output Shape              Param #   
=================================================================
embedding_1 (Embedding)      (None, 500, 300)          306300    
_________________________________________________________________
conv1d_1 (Conv1D)            (None, 500, 32)           28832     
_________________________________________________________________
max_pooling1d_1 (MaxPooling1 (None, 250, 32)           0         
_________________________________________________________________
lstm_1 (LSTM)                (None, 100)               53200     
_________________________________________________________________
dense_1 (Dense)              (None, 14)                1414      
=================================================================
Total params: 389,746.0
Trainable params: 389,746.0
Non-trainable params: 0.0
_________________________________________________________________
None
2017-03-14 23:49:28.513728: Starting training at epoch 0/20
Epoch 1/20
  1/100 [..............................] - ETA: 243s - loss: 2.6391 - categorical_accuracy: 0.0900 - categ
…
